agent_breakout.pt (torch_old, 287811 bytes, 10 tensors)

network.0.weight f4 [16, 4, 3, 3]
0	0xbcf53882	-0.029934172
1	0xbd652394	-0.055942133
2	0xbe2e5cc2	-0.17027572
3	0xbe6af11e	-0.22943541
4	0x3d1a2189	0.037629638
5	0x3e7427b6	0.23843274
6	0xbe900cb5	-0.28134695
7	0x3cf361c1	0.029709699
8	0x3dc0c50c	0.09412584
9	0x3d8d6caf	0.069054954
10	0xbf6c866f	-0.9239263
11	0xbf0fe047	-0.56201595
12	0x3d96aba9	0.0735696
13	0xbf2ae3d7	-0.66753906
14	0xbc7999fc	-0.015234467
15	0xbed5d412	-0.4176336
16	0x3d84e707	0.064893775
17	0x3edf3076	0.4359166
18	0xbe49ee4f	-0.19719814
19	0xbdad9f95	-0.084777035
20	0xbe62ed61	-0.22160865
21	0xbd6bb81a	-0.05754862
22	0x3e61f405	0.22065742
23	0xbd439a1d	-0.047754396
24	0xbcc93f08	-0.024566188
25	0xbde45821	-0.11149622
26	0x3d8dc5f9	0.06922526
27	0x3df7ab9f	0.12093281
28	0x3f2b0eb8	0.66819334
29	0xbe85d58c	-0.26139486
30	0x3eb2b2c6	0.34902018
31	0x3fa822dc	1.3135638
32	0x3ef3d6c6	0.47624797
33	0x3e89e6c6	0.2693388
34	0x3f5c7787	0.86119884
35	0x3e0acfc1	0.13555814
36	0x3d9473e2	0.072486654
37	0xbe327b8b	-0.1742994
38	0xbdf419ca	-0.119189814
39	0x3e5e11ce	0.2168648
40	0x3e77a027	0.24182187
41	0x3eb2233d	0.3479251
42	0xbd8b89e0	-0.06813407
43	0x3e4b2106	0.19836816
44	0xbe70fbb3	-0.23533516
45	0xbea23033	-0.31677398
46	0x3ec2682b	0.379701
47	0x3f156d34	0.58369756
48	0x3e97403c	0.29541194
49	0x3f82ac88	1.0208902
50	0x3fa98905	1.324494
51	0xbdcb98b2	-0.09941234
52	0x3eda55d3	0.42643604
53	0x3e810484	0.25198758
54	0x3de418cd	0.11137543
55	0xbea79171	-0.3272815
56	0x3ec947fa	0.39312726
57	0xbd99adad	-0.07503829
58	0xbea20f20	-0.31652164
59	0xbd8153e2	-0.063148275
60	0x39f87f79	0.0004739722
61	0xbf1e9b04	-0.61955285
62	0xbfb9c6ca	-1.4513791
63	0x3e847d06	0.25876635
64	0xbefefa8c	-0.49800527
65	0xbed28130	-0.41114187
66	0xbf8cf38d	-1.1011826
67	0xbfa60dc4	-1.2972951
68	0xbf20c202	-0.6279603
69	0x3f73de7a	0.9526135
70	0xbae57afb	-0.0017507965
71	0x3dba9282	0.091099754
72	0xbe2bef63	-0.16790538
73	0x3e5daff9	0.2164916
74	0x3e56dd71	0.2098291
75	0x3f60d84e	0.87830055
76	0x3f96731b	1.1753877
77	0x3ea0d2c0	0.3141079
78	0x3d20ddc9	0.03927401
79	0x3bfc18f1	0.007693403
80	0x3db0555a	0.086100295
81	0x3e3d35d2	0.18477562
82	0xbeef1b1a	-0.46700364
83	0xbf66a625	-0.90097266
84	0x3da34ad7	0.07973259
85	0xbe884c5e	-0.26620764
86	0xbf2bf220	-0.6716633
87	0x3e964daf	0.29356143
88	0xbe9e358c	-0.30900228
89	0x3dada98b	0.084796034
90	0x3bee323f	0.0072691734
91	0xbee66f5b	-0.45006832
92	0xbe9bb652	-0.30412537
93	0x3eb349da	0.35017282
94	0xbc8dae2b	-0.017294964
95	0xbf339d07	-0.7016148
96	0x3e9494b1	0.29019693
97	0x3f3bf5c9	0.73421913
98	0xbeae4145	-0.34034172
99	0xbee7fe61	-0.45311263
100	0x3f3b293f	0.7310981
101	0x3d82dcba	0.063897565
102	0xbe719a6c	-0.23594064
103	0x3eb6b2bd	0.3568324
104	0xbe233782	-0.15939143
105	0xbf12d732	-0.5735961
106	0x3f14c580	0.5811386
107	0xbf3d2a6d	-0.7389286
108	0xbf6e434d	-0.9307144
109	0xbfa85f90	-1.3154163
110	0xbe272fc4	-0.16326815
111	0xbf26befd	-0.65135175
112	0xbe79bdc7	-0.243888
113	0x3e08d955	0.13364156
114	0xbd976fe6	-0.0739439
115	0x3e5809f9	0.21097554
116	0xbe009bbc	-0.12559408
117	0x3f87cf20	1.0610085
118	0x3ec9d33b	0.3941897
119	0xbeb3cfe2	-0.3511954
120	0xbeac12ce	-0.33608097
121	0x3ebbce70	0.36680937
122	0x3d944de7	0.07241421
123	0xbf08b763	-0.53404826
124	0x3ee0d924	0.43915665
125	0x3e3eaef4	0.18621427
126	0xbeeaff1a	-0.45897752
127	0x3e874170	0.26417112
128	0x3e22489c	0.15848011
129	0xbe9ecb45	-0.31014457
130	0x3e34f149	0.17670168
131	0xbeed1c23	-0.4631053
132	0xbef82103	-0.48462686
133	0x3f0c1fe6	0.54736173
134	0x3e8e6904	0.27814496
135	0x3f97db47	1.1863793
136	0x3f44b231	0.768344
137	0xbe98f74b	-0.2987617
138	0x3f4ea9a8	0.80727625
139	0xbcc5fbaa	-0.024167854
140	0x3d705cd3	0.058682274
141	0xbe46f445	-0.19429119
142	0xbf7726f4	-0.9654381
143	0x3f0a8db5	0.5412248
144	0xbeb7233a	-0.35769063
145	0x3d731510	0.05934626
146	0x3d840938	0.06447071
147	0xbd6d5e86	-0.057951473
148	0x3e3c6e3f	0.1840143
149	0x3df80bfb	0.1211166
150	0xbeb24d1e	-0.3482446
151	0x3e7718d2	0.24130562
152	0x3d8d2f27	0.06893759
153	0xbeeba3fd	-0.4602355
154	0xbd3a959a	-0.045552827
155	0x3f33f3de	0.70293987
156	0x3d99f0c7	0.07516628
157	0x3ebfedb9	0.37486055
158	0x3e8074c9	0.250891
159	0xbf9df4e9	-1.2340366
160	0xbdb100b2	-0.08642711
161	0xbdac1351	-0.08402122
162	0xbed9cf67	-0.42541048
163	0x3effc869	0.49957588
164	0x3f5b7c8c	0.8573692
165	0xbcf93691	-0.030421527
166	0x3ef7c681	0.48393634
167	0x3f199f76	0.60008943
168	0xbfd1b6f5	-1.6383959
169	0xbe360c39	-0.177781
170	0x3e6c1ebb	0.23058598
171	0xbfb18243	-1.3867878
172	0xbfab558c	-1.3385482
173	0xbe8df5a1	-0.27726462
174	0xbee3a9ea	-0.44465572
175	0xbee82873	-0.4534336
176	0xbe8bff6b	-0.27343306
177	0xc0555dcb	-3.3338497
178	0xbf8a06c5	-1.0783316
179	0xbf884bef	-1.0648173
180	0x3f6fe167	0.9370331
181	0x3c83fe8e	0.016112592
182	0xbeac70c1	-0.33679774
183	0xbe97b19b	-0.2962769
184	0x3e827d1a	0.2548607
185	0x3e1b424b	0.15162008
186	0x3dab22fa	0.083562806
187	0xbe1c6683	-0.1527348
188	0x3d4556f5	0.04817863
189	0xbe8ac10d	-0.2710041
190	0xbec16888	-0.37775064
191	0xbdddcfde	-0.10830663
192	0xbe793f3a	-0.24340525
193	0x3e51876a	0.20461813
194	0x3ec48a92	0.3838697
195	0x3ea591fe	0.32337946
196	0xbf088cc7	-0.5333981
197	0x3d00aac3	0.03141285
198	0x3efe9419	0.49722365
199	0x3e29c9e7	0.16580926
200	0xbb981058	-0.00464062
201	0x3f137a3c	0.5760839
202	0x3ef374a2	0.4754992
203	0x3d3b3c5a	0.045711853
204	0x3f07cb49	0.53044564
205	0x3f3c5f34	0.7358277
206	0x3fa0ebb7	1.2571934
207	0xbf83b67a	-1.0290062
208	0x3bd7c40a	0.006584649
209	0x3eb3d598	0.35123897
210	0xbf7ea3e3	-0.9946882
211	0xbf0a4c45	-0.5402263
212	0xbd81edfd	-0.06344221
213	0xbfcea3cf	-1.614374
214	0xbf84e7e9	-1.0383273
215	0xbd230a70	-0.039804876
216	0xbd0932d4	-0.03349574
217	0xbe0ddf81	-0.13854791
218	0xbcf833b4	-0.030298091
219	0x3df4058f	0.11915123
220	0xbe9b4da6	-0.3033268
221	0xbd44b7fd	-0.048027027
222	0xbd3e4d7a	-0.046460606
223	0x3db0df0b	0.08636292
224	0xbc79ad26	-0.015239036
225	0x3e64c0a1	0.22339107
226	0xbd560bfe	-0.05225753
227	0xbcadfafa	-0.021237839
228	0x3eb781e8	0.35841298
229	0x3eb7bff4	0.35888636
230	0x3ebe4a8f	0.3716626
231	0xbec04113	-0.37549648
232	0x3e2bddc5	0.16783817
233	0xbe164434	-0.14674455
234	0x3e88fd1a	0.267556
235	0x3ed902c3	0.4238492
236	0x3e32f1ff	0.17475127
237	0x3f23ade6	0.6393722
238	0x3f5d6c00	0.8649292
239	0x3e98e454	0.298617
240	0x3f204121	0.6259938
241	0x3fbac029	1.4589893
242	0x3de0f11f	0.1098349
243	0x3e0b49e8	0.13602412
244	0xbe0829eb	-0.1329724
245	0xbe4d8a39	-0.20072259
246	0xbe4a763e	-0.19771668
247	0xbeadd707	-0.33953115
248	0x3c12e824	0.008966479
249	0xbf38ebfe	-0.72235096
250	0xbffb3da1	-1.9628183
251	0xbfa12379	-1.258895
252	0xbe487552	-0.19576004
253	0x3f3be5da	0.733976
254	0x3f31a021	0.6938496
255	0xbdf8ea97	-0.121541195

network.0.bias f4 [16]
0	0xbb7ad177	-0.0038271823
1	0x3b3f246c	0.0029165996
2	0xba17b687	-0.00057873916
3	0x3aaa7a7c	0.0013006474
4	0x3edbf2f6	0.42958802
5	0x3bb38ab7	0.0054791826
6	0x3d092ce4	0.033490077
7	0xbcaf4b18	-0.021398112
8	0xbe84d2dd	-0.25942126
9	0xba60f705	-0.00085817307
10	0x3e1e6f29	0.15472092
11	0x3d2d5b07	0.04232314
12	0x3d7f6132	0.062348552
13	0x3e9b38d8	0.30316806
14	0x3d361bd5	0.044460136
15	0x3e4cb410	0.19990563

network.2.weight f4 [32, 16, 3, 3]
0	0xbeb94b63	-0.36190328
1	0x3e0c80df	0.13721035
2	0xbe296b41	-0.1654482
3	0xbe886d23	-0.26645765
4	0xbf0ab846	-0.5418743
5	0xbf6a21e9	-0.9145799
6	0xbecb91e9	-0.39759758
7	0xbf562e64	-0.83664536
8	0x3da55c50	0.08074248
9	0xbed71e64	-0.42015374
10	0xbe98b280	-0.29823685
11	0x3ecab953	0.39594516
12	0xbe29e520	-0.1659131
13	0x3f49315a	0.7859093
14	0xbe2f8463	-0.17140345
15	0xbd17cdee	-0.037061624
16	0x3e0f3616	0.13985476
17	0x3f251ffd	0.64501935
18	0x3e89d9a1	0.2692385
19	0x3e8aaaac	0.27083337
20	0x3e2f2fb2	0.17108038
21	0x3e2b6a83	0.1673985
22	0x3efbc8c3	0.49176607
23	0x3f08c5e2	0.53426945
24	0x3e7ddcba	0.24791232
25	0x3ef9e883	0.48810205
26	0x3eb08ea6	0.34483832
27	0xbebffa6d	-0.37495747
28	0xbf041239	-0.51590306
29	0x3ce3c183	0.027802235
30	0x3e812c6d	0.25229207
31	0x3df5775d	0.11985657
32	0xbda3c4d7	-0.079965286
33	0xbe244d50	-0.16045117
34	0x3ee96db7	0.45591518
35	0x3e6eda76	0.23325524
36	0x3e423c73	0.18968372
37	0x3e828bb3	0.25497207
38	0x3e4bbfb6	0.1989735
39	0x3e5dde69	0.21666874
40	0x3e5c8458	0.2153486
41	0x3ec315a1	0.3810244
42	0x3ea7d80a	0.32782012
43	0x3e43fc2a	0.19139162
44	0x3e8a7f23	0.27050123
45	0xbe0caa15	-0.13736756
46	0x3cb385ae	0.02191433
47	0x3e5c34c2	0.215045
48	0x3f0fe0ed	0.56202585
49	0xbd4e511b	-0.050370317
50	0x3ee8fea1	0.45506766
51	0x3ee3d955	0.4450175
52	0x3f37c775	0.7178872
53	0xbda27f62	-0.079344526
54	0xb9bcbe3b	-0.00035999887
55	0x3d8d4e97	0.068997554
56	0x3d642262	0.055696853
57	0x3ed23e47	0.4106314
58	0x3ec29f9c	0.38012397
59	0x3e127fc9	0.14306559
60	0xbe3601ac	-0.17774075
61	0x3f0cfe65	0.55075675
62	0x3f6f2791	0.9341975
63	0xbd7acbf1	-0.06122965
64	0xbe936375	-0.28786817
65	0x3dabdc01	0.08391572
66	0x3e088278	0.1333102
67	0x3e217599	0.15767516
68	0x3edb3a6b	0.42818007
69	0x3f5daf83	0.86595935
70	0x3ee7f33e	0.45302767
71	0x3f4b005c	0.79297423
72	0x3dd2c4b3	0.10291424
73	0x3dce670d	0.10078249
74	0x3dc6776a	0.09690745
75	0xbe12778b	-0.14303415
76	0xbd8abdfc	-0.06774518
77	0x3f24fede	0.64451396
78	0xbeea1acd	-0.45723572
79	0xbd1b3475	-0.037891824
80	0xbe15db93	-0.14634542
81	0xbe659ed7	-0.22423874
82	0x3e8765bf	0.26444814
83	0x3e91080c	0.28326452
84	0x3e5c91ed	0.21540041
85	0x3f31e339	0.6948734
86	0x3e8e1720	0.27752018
87	0x3de3dea3	0.11126449
88	0x3d166a7e	0.036722653
89	0xbe705025	-0.23468073
90	0xbd4602ae	-0.0483424
91	0xbe2070c0	-0.1566801
92	0xbf002a96	-0.5006498
93	0xbdaf2e74	-0.08553782
94	0xbf11a719	-0.56895596
95	0xbe978100	-0.29590607
96	0xbe6e16ab	-0.23250835
97	0x3c89f091	0.016838344
98	0xbe26d6d6	-0.16292891
99	0xbdd3f4e3	-0.10349443
100	0xbe5584f2	-0.20851496
101	0xbdf83475	-0.121193804
102	0xbe685d1f	-0.22691773
103	0x3dd4c3a8	0.10388881
104	0x3db63eb9	0.08898682
105	0x3dd48c78	0.10378355
106	0xbe88694f	-0.26642844
107	0xbea375e8	-0.31925893
108	0xbeb873bf	-0.36025807
109	0xbee2de3d	-0.4431018
110	0xbf83a376	-1.0284259
111	0xbecf28cb	-0.4046081
112	0xbf0248c0	-0.5089226
113	0xbfb12e3b	-1.3842233
114	0xbf29ba7f	-0.66300195
115	0xbf01117e	-0.50417316
116	0xbf0f44fb	-0.5596463
117	0xbdaebe7b	-0.08532425
118	0x3e0330f7	0.12811647
119	0x3f0cdc35	0.5502351
120	0xbdd1dc8f	-0.10247146
121	0x3d86374d	0.065535165
122	0x3ea056c1	0.31316188
123	0x3e97d1f5	0.29652372
124	0x3e7ce65f	0.24697255
125	0x3ede54fe	0.4342422
126	0x3c3e08ff	0.0115988245
127	0x3e27d2d3	0.16389017
128	0x3ea1c475	0.31595197
129	0xbc56a68d	-0.013101232
130	0xbc923667	-0.017848207
131	0x3ee65023	0.44983014
132	0x3e917152	0.2840677
133	0x3ef249d2	0.47321945
134	0xbea66bf5	-0.3250424
135	0x3ddc219a	0.107485965
136	0x3d0d8ca4	0.034557953
137	0xbf006322	-0.50151265
138	0xbe7cbfca	-0.24682537
139	0x3df57468	0.11985093
140	0xbf27d3e3	-0.6555769
141	0xbf121a48	-0.5707135
142	0x3d4309f5	0.047616918
143	0xbe329248	-0.17438614
144	0x3e241940	0.16025257
145	0xbe0cae5a	-0.13738385
146	0x3cdf511e	0.02726036
147	0xbe6af67a	-0.22945586
148	0x3ed9ca3f	0.42537114
149	0xbe8d7137	-0.2762544
150	0x3e585b09	0.21128477
151	0xbe278e57	-0.16362892
152	0x3d0aef87	0.033919837
153	0xbe35fca2	-0.17772153
154	0x3e286622	0.1644521
155	0x3e84b3be	0.25918382
156	0x3baa27d1	0.0051927348
157	0xbe1250c7	-0.14288627
158	0x3e26ace0	0.16276884
159	0xbe852e31	-0.26011804
160	0xbea482a5	-0.32130924
161	0x3e1185a7	0.1421114
162	0xbd96b2ad	-0.073582985
163	0xbb719a8a	-0.0036865794
164	0xbf0f9d60	-0.5609951
165	0x3e780ad1	0.24222876
166	0x3e907833	0.28216705
167	0xbf157fcd	-0.58398134
168	0xbdaa8b4f	-0.08327352
169	0x3e8436c1	0.25823024
170	0x3e86b2aa	0.26308185
171	0xbb854567	-0.0040671113
172	0x3dd51526	0.10404424
173	0x3f17d611	0.59311014
174	0xbe5bce96	-0.21465525
175	0x3f3190df	0.6936168
176	0x3e9fd23b	0.3121508
177	0xbdd0bde4	-0.10192469
178	0xbe3c154f	-0.18367504
179	0x3eea08eb	0.4570993
180	0xbe8941ec	-0.26808107
181	0x3e09888b	0.13430993
182	0x3e804ad4	0.2505709
183	0x3d66c843	0.05634333
184	0x3e7e2167	0.2481743
185	0xbe3d0f0c	-0.18462771
186	0xbf3e1458	-0.7424979
187	0xbe919a14	-0.28437865
188	0x3dce9f50	0.1008898
189	0xbe8e3120	-0.27771854
190	0x3d0a9679	0.03383491
191	0xbc85bf8f	-0.016326694
192	0x3e9b76d3	0.30364093
193	0x3cf8f11b	0.030388406
194	0xbe4630a3	-0.19354491
195	0xbdec50ed	-0.11538873
196	0xbe032575	-0.12807257
197	0x3e8194b7	0.25308773
198	0x3e0d8579	0.13820447
199	0xbccad6c9	-0.02476062
200	0x3dc8b906	0.098009154
201	0x3e243f43	0.16039757
202	0x3e121e3a	0.14269343
203	0xbecb9519	-0.3976219
204	0xbf379c42	-0.71722806
205	0xbf444d49	-0.7668043
206	0xbef77dee	-0.48338264
207	0x3e3ba695	0.18325265
208	0x3de6243f	0.11237382
209	0x3d63b752	0.05559475
210	0xbeed0869	-0.4629548
211	0xbdbccb1c	-0.092184275
212	0x3e9f88e8	0.3115914
213	0x3ef83bc8	0.4848311
214	0x3f7250b0	0.9465437
215	0x3f1a4605	0.6026309
216	0xbe059509	-0.13045134
217	0x3ea26836	0.31720132
218	0x3d150606	0.036382698
219	0xbe9b217d	-0.30298987
220	0xbee1a65f	-0.44072244
221	0x3e43ac36	0.19108662
222	0xbf0d86ce	-0.5528382
223	0xbf52ee95	-0.823953
224	0xbee2fc2f	-0.44333026
225	0x3f23c7bd	0.6397665
226	0x3e6da2b2	0.23206595
227	0x3d900fb0	0.07034242
228	0xbe6d63f4	-0.2318266
229	0xbd662237	-0.056184974
230	0x3e732ab1	0.23746754
231	0xbdfb3a63	-0.12266996
232	0xbe89e930	-0.2693572
233	0xbf0dfa1b	-0.55459756
234	0x3e06aca7	0.13151799
235	0x3b0a0d3c	0.0021065017
236	0xbd3920f2	-0.045197435
237	0x3d8e71f1	0.06955326
238	0x3dd802ba	0.10547395
239	0xbd05cc0c	-0.032665297
240	0x3e82767e	0.25481027
241	0x3e90c6f6	0.28276795
242	0x3ef2c6e9	0.4741738
243	0x3d107457	0.0352672
244	0xbec2661e	-0.37968534
245	0xbbae00be	-0.005310147
246	0x3de9a00c	0.1140748
247	0xbd3e8d1c	-0.04652129
248	0x3dc57af9	0.09642596
249	0xbdd59323	-0.10428455
250	0x3e3abb92	0.18235615
251	0x3d481804	0.048851028
252	0x3eaa9d5b	0.33323178
253	0xbe1270dd	-0.14300866
254	0xbcad7246	-0.021172654
255	0xbeaad5b3	-0.33366165

network.2.bias f4 [32]
0	0x3d8b9cb6	0.068169996
1	0x3e6be994	0.23038322
2	0x3e804390	0.25051546
3	0x3d8d395f	0.06895708
4	0x3ec5dc13	0.38644466
5	0x3edb6d1e	0.42856687
6	0x3da398dc	0.0798814
7	0xbe5a4b4f	-0.2131779
8	0x3e58cf21	0.21172763
9	0x3d86a3cc	0.065742105
10	0x3d17970c	0.037009284
11	0x3e6f36d6	0.23360762
12	0x3e808bee	0.25106758
13	0x3d660e6e	0.056166105
14	0x3d4751de	0.04866206
15	0x3d648d63	0.0557989
16	0x3bf5c014	0.007499704
17	0xbd4ac5b7	-0.04950496
18	0x3e0d78aa	0.13815561
19	0x3dac0202	0.083988205
20	0x3e40652e	0.18788597
21	0x3e7e30a6	0.24823245
22	0xbe447263	-0.1918426
23	0xbc9e8d77	-0.019354565
24	0x3ed8111e	0.4220056
25	0x3e4d1d4b	0.20030706
26	0x3de8cdd7	0.11367386
27	0x3d6d3f22	0.057921536
28	0xbdb87ed0	-0.090085626
29	0xbd2117f2	-0.039329477
30	0x3e6451c4	0.22296816
31	0xbe1a315e	-0.15057895

network.4.weight f4 [64, 32, 2, 2]
0	0xbebbbc45	-0.36667076
1	0xbf1fe887	-0.62464184
2	0x3d985fc0	0.07440138
3	0x3e5a4192	0.21314076
4	0x3f612bb0	0.87957287
5	0xbd1e1acd	-0.038599778
6	0xbf367b20	-0.71281624
7	0xbb2ba83b	-0.0026192802
8	0xbd8c191b	-0.06840726
9	0x3e1a1279	0.1504611
10	0x3ec4c2a0	0.38429737
11	0x3ec7e400	0.39041138
12	0x3ee74449	0.45169285
13	0x3d8bff9e	0.068358645
14	0x3e101fde	0.14074656
15	0xbecef4fc	-0.40421283
16	0x3e2de760	0.16982794
17	0xbe44ad44	-0.1920672
18	0x3e525660	0.20540762
19	0x3edd848a	0.43265182
20	0x3e37ba4f	0.17942165
21	0x3ed23cdc	0.41062057
22	0x3dde941b	0.108680926
23	0x3dc8f7b8	0.098128736
24	0xbd4587a1	-0.04822505
25	0xbe1fa8a2	-0.15591672
26	0x3e416f83	0.18890195
27	0x3e66256c	0.22475213
28	0xbf1e8bf6	-0.61932313
29	0xbdf0ab27	-0.11751395
30	0x3e2a3f86	0.16625795
31	0x3d819f22	0.0632918
32	0x3ef3c07e	0.47607797
33	0xbe1d0f97	-0.15337978
34	0xbc306af6	-0.010767689
35	0x3e428d3e	0.18999192
36	0x3f29fcdc	0.6640146
37	0x3e2b237a	0.16712752
38	0x3e20e923	0.15713935
39	0xbca7e3a6	-0.020494293
40	0x3d7a5431	0.061115447
41	0xbedb844f	-0.4287438
42	0xbdaaf8f6	-0.08348267
43	0x3dd7fa31	0.10545767
44	0xbe553e01	-0.20824434
45	0xbec78f83	-0.38976678
46	0xbeb6e27a	-0.35719663
47	0xbebb8414	-0.36624205
48	0x3f00407c	0.50098395
49	0x3f2999af	0.6625013
50	0x3d4f66f7	0.050635304
51	0x3e706a13	0.23477964
52	0xbda7113b	-0.08157583
53	0x3dca1383	0.09867003
54	0x3e43fe91	0.19140078
55	0x3ec4c9c5	0.38435188
56	0xbe17168a	-0.14754692
57	0x3d6c6349	0.057711873
58	0xbf162d7b	-0.5866315
59	0x3e9f3534	0.31095278
60	0xbf1ba778	-0.6080241
61	0xbfa35e74	-1.27632
62	0xbf77a9c0	-0.9674339
63	0xbe3e22da	-0.18567982
64	0xbe18136c	-0.14851159
65	0x3d6cf7f9	0.057853673
66	0x3ee9ab45	0.4563848
67	0x3e603101	0.21893694
68	0xbf436e89	-0.7634054
69	0xbf7c482a	-0.98547614
70	0x3e4e6780	0.2015667
71	0x3dee0acd	0.11623154
72	0xbf4fb725	-0.8113883
73	0xbfcdbe7e	-1.6073759
74	0x3e3cb446	0.18428144
75	0x3eaa11f7	0.3321683
76	0xbe664a46	-0.2248927
77	0xbecda453	-0.40164432
78	0xbf0d2763	-0.55138224
79	0x3f60faa4	0.8788245
80	0x3d3788b4	0.044808105
81	0x3f2cf92b	0.675677
82	0xbe82ff24	-0.25585282
83	0x3ddfcc54	0.10927644
84	0xbe415163	-0.18878703
85	0x3dda1bad	0.1064981
86	0xbea6cab6	-0.3257653
87	0xbe4e5235	-0.20148547
88	0xbe063fa8	-0.1311022
89	0xbf2756c3	-0.6536676
90	0xbf419798	-0.7562194
91	0x3e823ea1	0.25438407
92	0xbdb49bb1	-0.08818758
93	0x3e55dbcd	0.20884629
94	0x3e818605	0.2529756
95	0x3e1afae4	0.1513477
96	0xbec43a99	-0.38325956
97	0xbf283f04	-0.65721154
98	0xbd9804b0	-0.07422769
99	0xbe4c0954	-0.19925433
100	0xbecded62	-0.4022017
101	0xbf20e48e	-0.62848747
102	0xbed70dd7	-0.42002746
103	0xbdbfc04f	-0.09362852
104	0xbf4cc5f6	-0.79989564
105	0xbf1b56f8	-0.6067958
106	0x3ebfa498	0.37430263
107	0x3ecde44a	0.40213233
108	0xbd62ad0a	-0.055340804
109	0x3dd2f384	0.10300353
110	0x3eb07b32	0.3446899
111	0x3efb68c4	0.49103367
112	0x3f0c1cfa	0.54731715
113	0xbe5dc3c8	-0.21656716
114	0x3e853d87	0.26023504
115	0x3e9d63e8	0.30740285
116	0x3f011066	0.5041565
117	0x3e990cd6	0.29892606
118	0x3ebbea31	0.3670211
119	0x3e642032	0.22277907
120	0x3e9c8f3a	0.30578023
121	0x3e9b0161	0.3027449
122	0xbc84bdb2	-0.016203735
123	0x3ece96e9	0.4034951
124	0xbd9c55c4	-0.07633546
125	0xbf603353	-0.87578315
126	0xbe9b5336	-0.30336922
127	0xbdf9295f	-0.12166094
128	0xbe1c49ee	-0.15262577
129	0xbef04186	-0.4692499
130	0x3e322e0e	0.17400381
131	0xbe88eb74	-0.26742136
132	0xbe0a993b	-0.13535015
133	0xbeddfc9f	-0.43356797
134	0x3f355a08	0.708405
135	0x3e9ce872	0.30646092
136	0x3eaa9c0d	0.33322182
137	0x3ecff7b5	0.40618673
138	0xbe8e2e08	-0.27769494
139	0xbe0f3b9e	-0.13987586
140	0xbe99531c	-0.2994622
141	0x3e7d8f79	0.24761762
142	0x3da30481	0.079598434
143	0x3e99027f	0.29884717
144	0x3dbf5f00	0.09344292
145	0x3eb1f5f1	0.3475795
146	0x3eb3bee6	0.3510658
147	0x3cb2d5a3	0.021830386
148	0x3d4b8f13	0.049696993
149	0xbe1f3871	-0.15548874
150	0xbc870a6b	-0.01648446
151	0xbf1533e4	-0.58282304
152	0xbeb32e01	-0.34996036
153	0x3c98f13c	0.018669717
154	0x3eb9202f	0.36157367
155	0x3e5f29e1	0.2179332
156	0x3f2bac95	0.67060214
157	0xbf6af8aa	-0.9178568
158	0x3dbe159c	0.092814654
159	0x3ed727c9	0.4202254
160	0x3db27eb8	0.08715576
161	0x3effce52	0.49962097
162	0x3dccd8da	0.10002299
163	0x3d863a17	0.065540485
164	0xbe063f76	-0.13110146
165	0xbe3a5993	-0.18198232
166	0xbe03a654	-0.12856418
167	0xbf0f4204	-0.55960107
168	0xbf1d6405	-0.6148074
169	0x3ece91b0	0.40345526
170	0xbe669c7d	-0.22520633
171	0xbe0147ef	-0.12625097
172	0xbe4730d0	-0.19452214
173	0xbeba41e4	-0.36378396
174	0xbb929da3	-0.004474358
175	0x3ecdcb4c	0.40194166
176	0x3e59b5db	0.21260779
177	0x3ec36ce0	0.38169003
178	0xbec2946e	-0.38003868
179	0xbd8b2fa3	-0.06796195
180	0xbe0bbd30	-0.13646388
181	0x3e52d360	0.20588446
182	0xbf0aa76a	-0.54161704
183	0xbf0a6104	-0.54054284
184	0xbdfd4a1c	-0.12367651
185	0x3e501c78	0.2032336
186	0x3e6a2119	0.22864188
187	0x3e2ca9e8	0.16861689
188	0xc02cb112	-2.6983075
189	0xbed936e4	-0.4242469
190	0xbfb74053	-1.4316505
191	0xbeec411c	-0.46143425
192	0xbf134540	-0.5752754
193	0xbee3f65a	-0.4452389
194	0x3ea7054a	0.32621223
195	0xbd8fc120	-0.070192575
196	0xbcf17751	-0.02947584
197	0xbe4e9edb	-0.20177786
198	0x3e12818f	0.14307235
199	0xbee244be	-0.4419307
200	0xbfcd6b65	-1.6048399
201	0x3ee5ae16	0.4485938
202	0x3f2132f7	0.6296839
203	0x3e58e776	0.21182045
204	0xbf2dd47b	-0.67902344
205	0xbf6cc13e	-0.92482364
206	0x3f845fb2	1.0341704
207	0x3f29d6bb	0.6634328
208	0x3dd8c0fb	0.10583683
209	0x3f0331bc	0.51247764
210	0xbf4e7304	-0.8064425
211	0xbe99ef8c	-0.30065572
212	0xbf531add	-0.82462865
213	0xbe1e904f	-0.15484737
214	0xbf3500fe	-0.7070464
215	0xbe728dbc	-0.2368688
216	0xbf4251b7	-0.75905937
217	0xbf0fcf77	-0.5617594
218	0x3dee3778	0.116316736
219	0x3e12c385	0.14332397
220	0xbf28b3f3	-0.6589958
221	0xbdcbcf5e	-0.099516615
222	0xbd9a4c1d	-0.07534049
223	0x3f3b9d1e	0.73286617
224	0xbea91754	-0.3302561
225	0x3e2964d7	0.16542374
226	0x3e626ab4	0.22111017
227	0x3eec4547	0.46146604
228	0x3d64c4ea	0.055851854
229	0x3e90a5a7	0.28251383
230	0xbe43828f	-0.19092773
231	0xbe296730	-0.16543269
232	0xbefa9109	-0.48938778
233	0x3dc463ae	0.09589325
234	0x3eeb06cb	0.4590362
235	0x3e923c0a	0.2856143
236	0xbe35103d	-0.17681976
237	0x3e31569f	0.173182
238	0xbd4d06e6	-0.050055407
239	0x3bc9c123	0.006157057
240	0xbf0f7977	-0.56044716
241	0xbf18d001	-0.5969239
242	0x3f2dc1f9	0.67874104
243	0x3f3617ec	0.7113025
244	0xbeb46c44	-0.3523885
245	0x3ee8f196	0.45496815
246	0x3d420ded	0.047376562
247	0xbd90ad36	-0.07064287
248	0x3ee4a904	0.446602
249	0x3e2c22c7	0.16810142
250	0xbe9bb5fe	-0.30412287
251	0xbe41e82d	-0.18936224
252	0x3cff1017	0.031135602
253	0xbf156e0d	-0.5837105
254	0xbf8beaf4	-1.0931077
255	0x3f247ecb	0.6425597

network.4.bias f4 [64]
0	0x3e8992ce	0.26869816
1	0x3ddff428	0.10935241
2	0xbd272ed1	-0.040816132
3	0x3e68e58b	0.22743814
4	0xbe985f29	-0.297601
5	0x3ea25c61	0.31711105
6	0xbe861760	-0.2618971
7	0x3e58e155	0.21179707
8	0x3ec2ad1f	0.38022706
9	0x3d807e5e	0.06274103
10	0x3e987191	0.29774144
11	0x3ebaee6e	0.36510032
12	0x3e749b24	0.23887306
13	0x3e65464b	0.22390096
14	0x3d7910eb	0.06080715
15	0x3c9284b8	0.01788555
16	0x3ec9be0c	0.39402807
17	0x3e83d201	0.25746158
18	0x3dbcae68	0.09212953
19	0xbd4f72ac	-0.05064647
20	0x3ea6a6c0	0.32549095
21	0x3c5ff6da	0.013669694
22	0x3dec2c43	0.1153188
23	0xbd287164	-0.041123763
24	0xbc9e3e3b	-0.019316783
25	0x3e6ca965	0.23111494
26	0xbf3eccf9	-0.74531513
27	0x3ec98e61	0.3936644
28	0x3d9901c6	0.074710414
29	0x3e26fbc4	0.16306978
30	0xbd7ce216	-0.06173905
31	0x3e2d0ebe	0.16900155
32	0x3e11259b	0.14174502
33	0xbcdc4999	-0.026890563
34	0x3ca1c681	0.019747974
35	0x3d163cca	0.036679067
36	0x3de9264c	0.11384258
37	0x3e291be1	0.16514541
38	0x3de379ab	0.11107191
39	0x3d2f2c6e	0.04276698
40	0x3d8a85d7	0.06763809
41	0x3f07219d	0.52785665
42	0x3e82f879	0.25580195
43	0x3e957993	0.29194316
44	0x3c69a8c7	0.014261431
45	0x3eaf2807	0.34210226
46	0x3f05cd58	0.52266455
47	0x3dfbee67	0.12301331
48	0x3e58eaad	0.21183272
49	0xbd8aba15	-0.067737736
50	0x3f168d32	0.58809197
51	0x3e994c27	0.29940912
52	0x3e9c6cb3	0.3055168
53	0x3e68d18b	0.22736184
54	0x3e72aecd	0.23699494
55	0x3e14ef0a	0.14544311
56	0xbce12ed7	-0.027488155
57	0xbd5212c9	-0.051287446
58	0x3dba32b0	0.09091699
59	0x3e80be0c	0.25144994
60	0x3ed09acd	0.40743104
61	0x3eb763ba	0.35818273
62	0xbd1037f0	-0.035209596
63	0xbda0a78b	-0.07844456

network.6.weight f4 [128, 64, 2, 2]
0	0xbe1971a9	-0.14984764
1	0x3e58b5b3	0.21163063
2	0xbe2eedd5	-0.17082913
3	0xbe5b17c4	-0.21395785
4	0xbe18c1b2	-0.14917639
5	0xbe84895b	-0.25886044
6	0xbf40b37b	-0.75273865
7	0xbf1cce95	-0.6125272
8	0xbdf68453	-0.120369576
9	0x3db39d04	0.08770183
10	0xbe040c57	-0.12895332
11	0x3e1a52b3	0.1507061
12	0xbaed124e	-0.001808712
13	0x3e774afb	0.24149697
14	0x3dc20ac8	0.094747126
15	0xbe4e6269	-0.20154728
16	0x3d112ca2	0.035442956
17	0xbe5f7a9a	-0.21824113
18	0x3d11a01b	0.03555308
19	0xbe364884	-0.178011
20	0x3ec53538	0.38517165
21	0xbd82ea97	-0.06392401
22	0x3e08dff6	0.13366684
23	0x3ecae70f	0.3962941
24	0x3e4d9ded	0.20079775
25	0xbd8e309b	-0.069428645
26	0xbe17b90d	-0.14816685
27	0xbd8a646b	-0.067574345
28	0x3d99c7b5	0.07508794
29	0xbed8e36d	-0.42361012
30	0x3f1537c1	0.582882
31	0xbe14de89	-0.14538015
32	0x3e029620	0.1275258
33	0x3e55bd8d	0.20873089
34	0x3ea58481	0.32327655
35	0x3f2c6a5e	0.67349803
36	0x3ebc8ac2	0.36824614
37	0xbdb7fda2	-0.089839235
38	0x3e0bc605	0.13649757
39	0xbe93c56e	-0.28861564
40	0x3e577ae9	0.2104298
41	0xbe8a5ad5	-0.27022424
42	0x3e5a12fd	0.21296306
43	0x3bf90a6e	0.0076001203
44	0xbc911b32	-0.017713163
45	0xbe86b374	-0.26308787
46	0x3d4b31b7	0.04960796
47	0xbe751389	-0.23933233
48	0x3e3dc9b4	0.18533975
49	0x3e003093	0.1251853
50	0x3ce4f5c6	0.027949225
51	0x3d9d124c	0.076695055
52	0x3d539526	0.05165591
53	0xbdc57404	-0.09641269
54	0xbe173e4a	-0.14769855
55	0xbb71fd1d	-0.003692455
56	0xbea25556	-0.3170573
57	0xbddcf22d	-0.10788379
58	0x3b895fdc	0.0041923355
59	0xbd86a3c8	-0.065742075
60	0x3e3908cb	0.1806976
61	0xbf21876c	-0.6309726
62	0xbe15c7dd	-0.14627023
63	0xbf693566	-0.91097105
64	0xbe717695	-0.23580392
65	0x3cd301ed	0.025757754
66	0xbf09ac15	-0.537782
67	0x3e861656	0.26188916
68	0x3d2f80f7	0.0428476
69	0xbe1bf5a7	-0.15230428
70	0x3dc80298	0.0976612
71	0xbe7333f9	-0.23750295
72	0xbe11a1b8	-0.14221847
73	0x3eb2fdb9	0.349592
74	0x3ec8a9a4	0.39191926
75	0x3ebb02df	0.36525628
76	0x3dcca8ab	0.09993108
77	0x3d2a0b6d	0.041514803
78	0xbece5150	-0.40296412
79	0xbf27ffb6	-0.6562456
80	0xbdf4bb6a	-0.11949809
81	0xbda879b0	-0.08226335
82	0xbe442785	-0.191557
83	0x3e1f110a	0.15533844
84	0xbe0297e2	-0.12753251
85	0xbd8ae767	-0.06782418
86	0x3e20488c	0.15652674
87	0x3e260641	0.16213323
88	0xbdede8e2	-0.116166845
89	0x3e700a7a	0.23441496
90	0xbe028e9b	-0.12749712
91	0x3d0b6952	0.03403599
92	0x3d1704f4	0.036869958
93	0xbcbe13a0	-0.023202717
94	0xbc438691	-0.011933939
95	0xbe8db3ae	-0.27676147
96	0x3e9fbe3d	0.31199828
97	0x3e8dedaa	0.27720386
98	0xbf205e52	-0.6264392
99	0x3f254c99	0.64570004
100	0x3db8f087	0.09030252
101	0x3ea03523	0.3129054
102	0x3ec36740	0.3816471
103	0x3ebee828	0.37286496
104	0xbcc95bf7	-0.024579985
105	0x3ea457f8	0.32098365
106	0xbee534e2	-0.4476691
107	0x3d3e23c0	0.046420813
108	0x3d68cbb7	0.056834903
109	0x3d927bc3	0.07152512
110	0xbe7bb8cb	-0.24582212
111	0xbf980785	-1.1877295
112	0x3e8844d9	0.26615027
113	0x3de48d90	0.111598134
114	0x3e6c9e09	0.2310716
115	0x3db57bb2	0.08861484
116	0x3e8092f1	0.25112107
117	0x3d617c93	0.055050444
118	0x3ae2e2b0	0.001730999
119	0xbe22d7aa	-0.15902582
120	0xbef7e92e	-0.4842009
121	0xbec8a24f	-0.39186332
122	0x3ee0ca68	0.43904424
123	0xbe6b3711	-0.22970225
124	0xbd3956e7	-0.045248892
125	0xbeca2ac7	-0.39485762
126	0x3edae0a9	0.42749527
127	0x3db7be73	0.08971872
128	0x3ec5bdb3	0.38621292
129	0xbe179e97	-0.14806591
130	0xbed22af6	-0.41048402
131	0x3ea3d555	0.31998697
132	0x3d4f908e	0.050674967
133	0xbd8f8211	-0.0700723
134	0x3d302311	0.043002192
135	0x3d959394	0.07303539
136	0xbe6bf0bb	-0.2304105
137	0xbd274444	-0.040836588
138	0x3f01ec28	0.5075097
139	0xbea4fda4	-0.32224762
140	0xbefe91a5	-0.49720493
141	0x3c200e3c	0.009769019
142	0x3a02cc00	0.0004989505
143	0x3c3a83ad	0.011383933
144	0x3e606e33	0.21917038
145	0xbe814443	-0.25247392
146	0xbe6f02d6	-0.23340926
147	0xbb47fa7b	-0.0030514288
148	0x3f198c23	0.59979457
149	0xbe73c49f	-0.23805474
150	0x3f00e4f5	0.5034936
151	0x3e0a3bf8	0.13499439
152	0x3e1ee921	0.15518619
153	0xbda17f7d	-0.078856446
154	0xbe88f5b2	-0.2674995
155	0xbc4b36d2	-0.012403207
156	0x3d94f8dd	0.072740294
157	0x3e81ee95	0.25377336
158	0xbdbd06c5	-0.09229807
159	0xbea06fd1	-0.3133531
160	0xbe289dd1	-0.16466452
161	0x3d4479b3	0.047967624
162	0x3e013a40	0.12619877
163	0xbda8c5e1	-0.082408674
164	0x3e4b29d5	0.19840176
165	0x3e814910	0.25251055
166	0x3dce42f0	0.10071361
167	0xbde45912	-0.11149801
168	0x3d7de719	0.06198797
169	0x3e60e0ca	0.2196075
170	0x3ed7404a	0.42041236
171	0x3f226f39	0.6345096
172	0x3e08cf28	0.13360274
173	0x3e42f9b1	0.19040562
174	0x3daa39ce	0.083118066
175	0xbf2b33df	-0.66876024
176	0xbde43ea9	-0.11144764
177	0x3d139995	0.03603514
178	0xbf4b07a3	-0.7930853
179	0xbf4f1fb2	-0.8090774
180	0xbda6186b	-0.08110126
181	0xbdf78bb4	-0.12087193
182	0x3e1465ec	0.14492005
183	0xb8d02cd7	-9.926565e-05
184	0xbd9f19ee	-0.077686176
185	0xbdeb6005	-0.11492924
186	0x3d675e07	0.056486156
187	0x3e2e5b4f	0.17027019
188	0xbe329bed	-0.17442293
189	0x3e456346	0.19276151
190	0x3e35a81f	0.17739914
191	0xbe38cea9	-0.18047585
192	0x3ddd9bf0	0.10820758
193	0x3e06889f	0.13138054
194	0xbf0d8d3e	-0.55293643
195	0xbe4ad90c	-0.1980936
196	0x3e36b061	0.1784072
197	0x3dcc3d19	0.09972591
198	0x3e6a8e70	0.22905898
199	0xbea2a8ef	-0.3176951
200	0x3e084f90	0.133116
201	0xbe82e543	-0.25565538
202	0xbe9c18a5	-0.30487552
203	0xbc393b32	-0.011305617
204	0xbe7f8abb	-0.24955265
205	0x3e625118	0.22101247
206	0x3df73054	0.12069765
207	0xbc18dfdc	-0.009330716
208	0xbe9cad4a	-0.3060096
209	0xbe977852	-0.29583985
210	0x3e6d728f	0.23188232
211	0xbf358ff2	-0.7092277
212	0x3e25ce18	0.161919
213	0x3e0ec407	0.13941966
214	0xbeb857b5	-0.36004415
215	0x3eee5513	0.4654928
216	0xbde9d91f	-0.11418366
217	0x3ca2a257	0.0198528
218	0x3cc6347b	0.024194947
219	0xbd4180f6	-0.047242127
220	0xbea73a7f	-0.32661816
221	0x3eee494b	0.46540293
222	0x3ed71697	0.42009422
223	0x3e810c47	0.2520468
224	0xbf07c0a6	-0.53028333
225	0x3dbaf961	0.091295965
226	0xbe8a6979	-0.27033594
227	0xbf329bad	-0.6976879
228	0x3e317647	0.17330275
229	0xbea00de1	-0.3126059
230	0xbdcdb382	-0.10044004
231	0xbe5466d4	-0.20742351
232	0x3d22baeb	0.03972904
233	0x3dafb58b	0.085795484
234	0xbe4ba786	-0.19888124
235	0x3f1a9c79	0.6039501
236	0xbd53c775	-0.05170389
237	0x3c85d468	0.016336635
238	0x3dc686a7	0.09693652
239	0x3cf84c0d	0.030309701
240	0x3e261e1f	0.16222428
241	0xbdd8f7c3	-0.10594132
242	0xbe95220f	-0.29127547
243	0xbea9e531	-0.33182672
244	0x3d029692	0.031881876
245	0xbe6f1904	-0.23349386
246	0x3ee9fcf4	0.457008
247	0x3ef570ca	0.47937614
248	0x3cc66434	0.024217702
249	0xbd77e745	-0.06052329
250	0xbf379ad2	-0.7172061
251	0xbfd3b7a9	-1.6540424
252	0xbf78d37e	-0.9719771
253	0x3f005c9e	0.5014132
254	0x3e189288	0.14899647
255	0xbea3a3ce	-0.3196091

network.6.bias f4 [128]
0	0xbda98a83	-0.08278372
1	0x3e59090a	0.21194854
2	0x3e979155	0.29603067
3	0xbf8bbebe	-1.0917585
4	0xbde0ea30	-0.10982168
5	0x3e67d724	0.22640663
6	0x3e2c5ab7	0.1683148
7	0x3d0c4e80	0.03425455
8	0x3e11927e	0.14216039
9	0x3e04c19f	0.12964486
10	0xbc93e7ab	-0.018054804
11	0x3dcb2dcf	0.09920847
12	0x3d8d5cef	0.06902491
13	0xbdcedb64	-0.10100439
14	0x3eae93a2	0.3409701
15	0x3e7c75a6	0.24654254
16	0xbe25787b	-0.16159241
17	0x3f4bd7b4	0.7962601
18	0xbd376915	-0.04477795
19	0x3d8023d6	0.06256835
20	0x3dcf0863	0.101090215
21	0xbcb40cfa	-0.021978844
22	0x3f154701	0.5831147
23	0x3d58cc49	0.052929197
24	0xbd1a89c0	-0.037729025
25	0x3e20db77	0.15708719
26	0xbdab140d	-0.08353434
27	0x3c8b4374	0.016999938
28	0xbd6f6674	-0.058447316
29	0xbd25ee42	-0.040510423
30	0x3e1ea8d7	0.15494095
31	0xbd216dfa	-0.039411522
32	0x3d40dadb	0.047083717
33	0x3d1947ef	0.037422117
34	0xbc3b8e33	-0.011447477
35	0x3c266ef8	0.010158293
36	0xbdb08a6b	-0.08620151
37	0x3e860cce	0.26181644
38	0xbd2ce49a	-0.0422102
39	0x3e737b6c	0.2377755
40	0x3e80fdb6	0.25193566
41	0x3cc2d86f	0.023784844
42	0x3db10edd	0.08645413
43	0x3d8c27c9	0.06843526
44	0x3cef4a47	0.029210223
45	0xbddff550	-0.109354615
46	0x3e4fbcf0	0.20286918
47	0xbe2dfdcf	-0.16991352
48	0x3dfaa867	0.122391514
49	0x3e6a1b28	0.22861922
50	0xbd99188b	-0.07475384
51	0xbe3ada02	-0.18247226
52	0x3e3a5512	0.18196514
53	0x3c1403fc	0.009034153
54	0x3e1e3555	0.15450032
55	0xbe419009	-0.18902601
56	0x3e207da1	0.15672924
57	0xbda9053e	-0.08252953
58	0x3dec6cce	0.1154419
59	0x3f1fe9f9	0.6246639
60	0x3e25e267	0.16199647
61	0xbdf4a969	-0.11946375
62	0x3bd61220	0.0065329224
63	0x3e9148b1	0.28375772
64	0x3e084054	0.13305789
65	0x3d77ed33	0.060528945
66	0x3eaa7f2f	0.33300158
67	0x3eb8eed6	0.36119717
68	0xbdce49de	-0.10072683
69	0x3e82f7c9	0.2557967
70	0x3e7507c8	0.2392875
71	0xbd405c13	-0.04696281
72	0x3e02f715	0.12789567
73	0x3ee0d0f0	0.43909407
74	0x3d6aca7a	0.057322003
75	0x3dda0ccb	0.10646971
76	0xbd53271f	-0.05155098
77	0x3e53a075	0.20666678
78	0x3e1502ca	0.14551845
79	0xbcdb6550	-0.026781708
80	0x3e038211	0.12842585
81	0x3e760464	0.24025112
82	0x3cd635a7	0.02614863
83	0x3e38a11e	0.18030211
84	0x3e4a26ee	0.19741413
85	0x3f248295	0.6426175
86	0xbe90da40	-0.28291512
87	0x3e8e3516	0.27774876
88	0x3ddadeae	0.10687004
89	0xbda253d5	-0.07926146
90	0x3df85fca	0.12127645
91	0xbdcb22a3	-0.09918716
92	0x3ea9078c	0.3301357
93	0x3e04660c	0.12929553
94	0x3e472bcd	0.19450302
95	0xbe273538	-0.16328895
96	0x3e084207	0.13306437
97	0xbe26fb85	-0.16306885
98	0xbd4e0c82	-0.050304897
99	0x3e3cb029	0.18426575
100	0x3d4e3029	0.050338898
101	0xbc38e9ca	-0.011286208
102	0x3ecb559f	0.3971376
103	0x3d9bcceb	0.076074444
104	0x3ce3d9a5	0.027813742
105	0xbeea7cb0	-0.45798254
106	0x3ef330f9	0.474983
107	0x3efebdd2	0.49754196
108	0x3de7ec67	0.11324387
109	0x3ebadba8	0.3649571
110	0x3d97befa	0.07409473
111	0x3ce0f326	0.027459692
112	0xbdad65c3	-0.08466675
113	0x3dc54b01	0.096334465
114	0x3eb1a9b5	0.3469979
115	0x3e9d08b1	0.30670694
116	0x3dd9583c	0.106125325
117	0x3e12ebaf	0.14347719
118	0x3e09ee5b	0.13469832
119	0x3ea279c0	0.31733513
120	0xbeca345f	-0.3949308
121	0x3e1067d1	0.14102103
122	0x3da4da64	0.08049467
123	0xbe19c886	-0.150179
124	0x3dcf360e	0.10117732
125	0x3e7af4cd	0.24507447
126	0xbec53994	-0.3852049
127	0x3eb46c78	0.35239005

network.9.weight f4 [4, 6272]
0	0x3e1d5c6a	0.15367284
1	0xbe0a2715	-0.13491471
2	0xbddfbaaa	-0.10924275
3	0x3e0dcfe2	0.13848832
4	0xbdb90541	-0.09034205
5	0xbd0740f8	-0.033020943
6	0x3ecbd5aa	0.3981145
7	0xbe389b10	-0.18027902
8	0xbda90ec4	-0.082547694
9	0xbd749ad5	-0.05971797
10	0x3e8f79d1	0.28022626
11	0xbd462dca	-0.04838351
12	0xbd86e7f5	-0.06587211
13	0xbdf5551a	-0.119791225
14	0xbcdb2f4f	-0.026755957
15	0x3e13cec4	0.14434344
16	0xbd616e18	-0.055036634
17	0xbdc11bac	-0.09429106
18	0xbe1a7e05	-0.15087135
19	0x3d69e94d	0.05710726
20	0xbe030b1e	-0.1279721
21	0x3d9a292c	0.07527384
22	0x3e6721e8	0.22571528
23	0x3d76d9aa	0.060266174
24	0x3e9292ff	0.28627774
25	0x3ef0a31b	0.4699944
26	0x3e5e0216	0.21680483
27	0x3d0cce4c	0.034376428
28	0x3ec0e5cc	0.3767532
29	0x3ec0e942	0.37677962
30	0x3e64a4eb	0.22328536
31	0x3e21d512	0.15803936
32	0x3eef37cf	0.46722266
33	0x3e878fe2	0.2647696
34	0xbe874c15	-0.26425233
35	0x3ef13ee9	0.4711831
36	0x3e0ffc54	0.140611
37	0xbd8405ff	-0.06446456
38	0x3ce0f133	0.027458763
39	0x3cc35ba0	0.023847401
40	0xbe13a66c	-0.14418954
41	0xbec87ed1	-0.39159253
42	0x3e0652ca	0.13117519
43	0xbd7f56a3	-0.062338483
44	0xbe8c7801	-0.27435306
45	0xbe4a2650	-0.19741178
46	0xbe830801	-0.25592044
47	0xbeb711d4	-0.3575579
48	0xbe512e91	-0.2042792
49	0xbe1bf348	-0.15229523
50	0x3d381fa4	0.04495205
51	0x3c09602c	0.008384746
52	0x3d5bf087	0.05369618
53	0xbced72cc	-0.028985403
54	0xbdd3398d	-0.10313711
55	0x3defde76	0.11712353
56	0x3e24e3fa	0.16102591
57	0x3e27aafa	0.16373816
58	0x3e8a7550	0.27042627
59	0xbd414c70	-0.047192037
60	0x3e9ecc83	0.31015405
61	0x3e2abddd	0.1667399
62	0xbd947766	-0.07249336
63	0xbec57927	-0.38568994
64	0x3b82bb3d	0.0039896057
65	0xbdded981	-0.10881329
66	0xbe1c4bba	-0.15263262
67	0x3d4b40be	0.04962229
68	0x39c77d8b	0.00038049775
69	0xbde34fe2	-0.11099221
70	0xbe9537cc	-0.29144132
71	0xbdfa1f4e	-0.12213002
72	0xbcc14047	-0.02359022
73	0xbd2944a2	-0.04132522
74	0xbec60714	-0.38677275
75	0x3e0fcd01	0.14043047
76	0xbd9a3a7e	-0.07530688
77	0xbe3b5827	-0.18295346
78	0xbe4c0ec9	-0.19927515
79	0xbd23ecff	-0.04002094
80	0xbda7694d	-0.081743814
81	0xbebcea4e	-0.3689751
82	0x3a9183be	0.0011101884
83	0x3eaae017	0.33374092
84	0xbea83ffb	-0.32861313
85	0xbe38c99f	-0.18045662
86	0xbed21ba1	-0.41036704
87	0xbe41c4a4	-0.18922669
88	0x3db727ce	0.08943139
89	0x3e3565ae	0.17714569
90	0x3e62be0f	0.22142814
91	0x3ec51640	0.38493538
92	0x3e1d01fa	0.15332785
93	0x3ecb095f	0.39655587
94	0xbd0baf07	-0.034102466
95	0x3ec58804	0.38580334
96	0x3e227dab	0.15868251
97	0x3f256a1d	0.6461504
98	0x3e32b660	0.17452383
99	0x3ea64deb	0.32481322
100	0x3e16cfc0	0.14727688
101	0x3e4327ef	0.19058202
102	0x3df086c6	0.11744456
103	0x3de33c5a	0.110954955
104	0x3d2d6826	0.04233565
105	0x3eac80aa	0.33691913
106	0x3e8dba61	0.27681258
107	0x3ec16cc9	0.3777831
108	0x3ed58d03	0.41709146
109	0x3e92e5de	0.28691
110	0x3eb9d08a	0.36291915
111	0x3ea83e29	0.32859924
112	0x3ebe5c3b	0.3717974
113	0x3e87b426	0.2650463
114	0x3daeed9e	0.08541416
115	0x3d7a24a6	0.061070107
116	0x3e8fe0fb	0.28101334
117	0x3e6c1a1d	0.23056836
118	0x3e7464b2	0.23866537
119	0x3f237f07	0.63865703
120	0x3e48a7b2	0.1959522
121	0x3e9b9569	0.30387428
122	0x3e49b4d7	0.19697891
123	0x3eb9fd70	0.3632617
124	0x3d89cd0f	0.06728565
125	0x3e4eec93	0.20207433
126	0x3ec9f0fe	0.39441675
127	0x3e84ad7c	0.25913608
128	0x3eaad7c5	0.33367744
129	0x3ed0aae6	0.40755385
130	0x3e8e39cb	0.27778468
131	0x3e2980c4	0.16553026
132	0x3e1d6c6f	0.15373395
133	0x3dd97bee	0.10619341
134	0x3e0174ec	0.12642258
135	0x3e04a98b	0.129553
136	0x3bedffff	0.007263183
137	0xbb3c8565	-0.0028766033
138	0x3dc619fe	0.09672926
139	0x3cab8c96	0.02094106
140	0xbe610ce8	-0.2197758
141	0xbe63ab04	-0.22233206
142	0xbe010d61	-0.1260276
143	0xbdca0354	-0.09863916
144	0xbdd4d65a	-0.10392447
145	0xbdeedb3d	-0.1166291
146	0xbe160442	-0.14650062
147	0x3d2ba429	0.041904602
148	0xbdaaca0b	-0.08339318
149	0x3e0a3798	0.1349777
150	0xbe06c264	-0.13160092
151	0xbdf34a5f	-0.118794195
152	0x3bf2d79f	0.007410958
153	0xbe09e607	-0.13466655
154	0x3c82e5f6	0.015978795
155	0x3ba54f71	0.0050448705
156	0x3c4176ca	0.011808107
157	0xbe80f5bd	-0.25187483
158	0xbdf17dee	-0.11791597
159	0x3ea7d69b	0.32780918
160	0xbe41632f	-0.18885492
161	0xbeb9916b	-0.36243758
162	0xbe4fe47c	-0.20302004
163	0x3cfe8697	0.031070037
164	0xbe1621c6	-0.14661321
165	0xbdbb1746	-0.091352984
166	0xbe57d602	-0.21077731
167	0xbe80e742	-0.25176436
168	0xbed637d4	-0.41839468
169	0xbe251e93	-0.16124944
170	0xbe03b17d	-0.12860675
171	0xbe5fef61	-0.2186866
172	0xbe1d8431	-0.15382458
173	0xbe8915fd	-0.26774588
174	0xbe996cc5	-0.29965797
175	0xbef2571a	-0.47332078
176	0xbea44b5c	-0.32088745
177	0xbe36678c	-0.17812937
178	0xbdd72baa	-0.10506375
179	0xbe6914a1	-0.22761776
180	0xbe43abba	-0.19108477
181	0xbea819fc	-0.32832325
182	0xbee60e05	-0.4493257
183	0xbe22afc0	-0.15887356
184	0xbe84112b	-0.25794348
185	0xbde3b17d	-0.111178376
186	0xbe3cb19c	-0.18427128
187	0xbe6a3227	-0.22870694
188	0xbecf7e87	-0.4052622
189	0xbe73aa9a	-0.23795548
190	0xbe274524	-0.16334969
191	0xbf26d737	-0.6517214
192	0xbf433702	-0.7625581
193	0xbe17aed1	-0.14812781
194	0xbf1f5b86	-0.6224903
195	0xbee286ed	-0.44243565
196	0xbdc3e5b6	-0.09565298
197	0xbe00c376	-0.12574562
198	0x3da806ad	0.08204398
199	0x3e7d8e50	0.24761319
200	0xbe3b11df	-0.18268536
201	0xbcb8d39f	-0.022561846
202	0x3e732436	0.23744282
203	0x3efa52b1	0.48891214
204	0x3e133528	0.14375746
205	0xbd89c8ef	-0.06727778
206	0x3e4cd64c	0.20003623
207	0xbd802789	-0.06257541
208	0xbc9a9299	-0.018868731
209	0x3db7b598	0.08970183
210	0xbcb8d251	-0.022561224
211	0x3cb104ed	0.021608794
212	0xbd526103	-0.05136205
213	0xbcf3efe5	-0.029777477
214	0xbe1e2161	-0.1544242
215	0x3d0d0a84	0.034433857
216	0xbe9233fc	-0.28555286
217	0xbd878c25	-0.06618527
218	0xbded7c82	-0.115960136
219	0xbe352c48	-0.17692673
220	0xbcd1bad4	-0.025601782
221	0xbbe00589	-0.0068365973
222	0x3dc99a77	0.09843915
223	0x3cacb358	0.021081612
224	0xbd24fa4a	-0.040277757
225	0xbdbb0728	-0.09132224
226	0xbd0d4c2f	-0.034496482
227	0x3df0f133	0.11764755
228	0x3e0c9632	0.1372917
229	0x3e6cbb57	0.2311834
230	0x3e465f4d	0.19372292
231	0xbe5e55a9	-0.21712364
232	0xbbd1752e	-0.0063921427
233	0xbca55b19	-0.02018504
234	0x3d5fa800	0.054603577
235	0xbe21c38d	-0.15797253
236	0xbdb7e746	-0.08979659
237	0xbd0e1ed6	-0.034697376
238	0xbf56ce31	-0.83908373
239	0xbf629d1d	-0.88520986
240	0xbfb6ecb2	-1.4290984
241	0xbfeea31d	-1.8643528
242	0xbf7388cf	-0.9513063
243	0xbfb027e4	-1.3762174
244	0xbe45ff89	-0.1933576
245	0x3e97ef6d	0.29674855
246	0xbdbe5990	-0.092944264
247	0xbd467048	-0.048446923
248	0x3de0a6a9	0.10969288
249	0x3e6ab4da	0.22920552
250	0xbdf65e02	-0.12029649
251	0xbd8780fb	-0.06616398
252	0xbe324960	-0.17410803
253	0xbe4ca06e	-0.19983074
254	0xbd895be1	-0.06706978
255	0xbe469a65	-0.19394834

network.9.bias f4 [4]
0	0x3e8ba38c	0.27273214
1	0x3e7a11ce	0.24420854
2	0x3ea352e8	0.3189919
3	0x3ea4b5be	0.32169908
